asr_cnn_model_weights.pt (torch, 90343 bytes, 14 tensors)

layer1.0.weight f4 [16, 1, 3, 3]
-0.0034146437 0.030476535 -0.019384725 -0.13625684 -0.12260825 0.22354823 -0.3570378 0.27554408
0.3040584 -0.04754322 -0.010025607 -0.26636928 0.010633668 -0.26131243 0.06854327 0.19440755
0.045303248 0.061569147 0.048704002 -0.12937373 -0.004865471 0.21267185 0.2615767 0.20336843
-0.23952393 0.00039198727 0.044413198 0.21603861 0.2582158 -0.21092707 -0.05419654 0.15477832
-0.20402297 -0.2645833 -0.26603734 0.059529174 0.13094044 0.25951508 -0.29945785 0.21478905
-0.23099433 -0.031901028 0.26215175 0.18838803 -0.31157166 0.24905597 0.0547846 0.20229915
-0.19511162 0.24124156 0.088577114 0.10248299 0.118310064 0.21130127 -0.29759425 -0.08476098
0.13361596 0.07375388 0.041058023 0.28964245 0.015114732 -0.015875084 -0.11471883 0.27593678
0.06121755 0.1809251 0.2919389 0.29534313 0.2876765 0.101129234 0.007996574 -0.06783133
0.22956438 -0.0024146307 -0.15398966 0.18556872 0.11234378 0.19573644 -0.03299774 -0.1151225
0.06315592 0.19278784 -0.2571519 0.24309325 0.18241587 -0.2829033 0.15814915 -0.20961435
-0.27911678 -0.004369388 -0.31920996 -0.20518595 0.07592016 0.19743314 0.21921438 0.0789728
0.21100795 0.13245407 0.047140602 -0.32200208 -0.33171815 0.10740999 -0.083477296 0.038417276
0.023233488 0.0028240567 0.32229906 0.21665697 0.010950585 -0.10824057 0.069963075 0.2318697
-0.15781131 0.07776039 0.26822343 -0.30493343 -0.16420114 -0.2950288 0.014243061 0.19544315
0.08090223 -0.11494679 0.2116476 -0.19596636 -0.2221101 -0.24529846 0.100605905 -0.050961226
-0.07474124 0.069377966 -0.089590035 0.17638896 0.0935071 -0.1670037 -0.25896624 0.03430996
0.32192054 -0.2471798 0.0010740617 -0.20523465 0.23757282 -0.25996035 -0.0492039 0.14107946
00000000: 37c8 5fbb eda9 f93c b7cc 9ebc ea86 0bbe
00000010: 091a fbbd d4e9 643e a9cd b6be 1d14 8d3e
00000020: 8bad 9b3e aebc 42bd 7242 24bc 8e61 88be
00000030: d638 2e3c beca 85be 6a60 8c3d c612 473e
00000040: e68f 393d ee2f 7c3d d97d 473d 8c7a 04be
00000050: 876e 9fbb a6c6 593e 62ed 853e d03f 503e
00000060: c345 75be a483 cd39 9dea 353d 3a39 5d3e
00000070: dd34 843e 44fd 57be 31fd 5dbd 357e 1e3e
00000080: 66eb 50be 7677 87be 0c36 88be ddd4 733d
00000090: 4015 063e 29df 843e 8a52 99be a9f1 5b3e
000000a0: c789 6cbe a7aa 02bd c138 863e cbe8 403e
000000b0: 5286 9fbe 8708 7f3e d165 603d 8227 4f3e
000000c0: 57cb 47be 0708 773e eb67 b53d 9ae2 d13d
000000d0: 8c4c f23d 5c5f 583e 465e 98be 2a97 adbd
000000e0: 9fd2 083e 460c 973d 752c 283d 044c 943e
000000f0: c8a3 773c 770c 82bc b5f1 eabd 9647 8d3e
00000100: 41bf 7a3d 6e44 393e 0479 953e 3737 973e
00000110: 564a 933e d81c cf3d 1004 033c 27eb 8abd
00000120: ed12 6b3e c83e 1ebb 77af 1dbe ba05 3e3e
00000130: 7f14 e63d 226f 483e a328 07bd 58c5 ebbd
00000140: e457 813d 2d6a 453e 6aa9 83be 70ed 783e
00000150: 3acb 3a3e b4d8 90be daf1 213e 25a5 56be
00000160: 65e8 8ebe 152d 8fbb 7d6f a3be 441c 52be
00000170: 077c 9b3d ea2b 4a3e bc79 603e 7ebc a13d
00000180: 7812 583e 0aa2 073e 8116 413d 75dd a4be
00000190: f6d6 a9be c5f9 db3d 25f6 aabd 6f5b 1d3d
000001a0: 2854 be3c cf13 393b 6204 a53e 53db 5d3e
000001b0: 156a 333c 3bad ddbd cd48 8f3d 406f 6d3e
000001c0: 4a99 21be d740 9f3d 9554 893e 3c20 9cbe
000001d0: 5824 28be 040e 97be ba5b 693c 4022 483e
000001e0: 12b0 a53d 3969 ebbd 26ba 583e 68ab 48be
000001f0: d470 63be 852f 7bbe 780a ce3d b8bc 50bd
00000200: ef11 99bd 0916 8e3d fb7a b7bd 4f9f 343e
00000210: a780 bf3d 0503 2bbe 3997 84be 9a88 0c3d
00000220: c5d2 a43e b41c 7dbe 88c7 8c3a 0829 52be
00000230: 4a46 733e 8619 85be 078a 49bd 2277 103e

layer1.0.bias f4 [16]
-0.28906524 0.13696131 -0.0070885 -0.31149468 0.29371116 -0.08586839 -0.18206148 -0.23617026
-0.25194994 -0.05840178 0.30591553 0.26975918 -0.1406319 0.12809591 0.19861253 -0.25754082
00000000: 5c00 94be 963f 0c3e a646 e8bb 3b7c 9fbe
00000010: 4f61 963e c4db afbd 536e 3abe 9ed6 71be
00000020: 95ff 80be b436 6fbd f6a0 9c3e e01d 8a3e
00000030: cf01 10be 932b 033e 1561 4b3e 64dc 83be

layer1.2.weight f4 [16]
1.0173155 0.9779412 1.0004109 1.005523 1.0322336 0.9808168 0.95490736 0.99472016
1.0352349 0.96029365 0.9706294 0.99985826 1.0008895 1.0083082 1.0158592 1.0201313
00000000: 6537 823f 5b5a 7a3f 770d 803f fab4 803f
00000010: 3b20 843f cf16 7b3f cf74 743f fba5 7e3f
00000020: 9482 843f ced5 753f 2b7b 783f b6f6 7f3f
00000030: 261d 803f 3e10 813f ad07 823f aa93 823f

layer1.2.bias f4 [16]
0.042540215 0.044235703 0.073097624 0.035082195 0.06871907 0.09335266 0.05581891 0.029514255
0.03163444 0.031646043 0.12880392 0.019441372 0.0042811977 0.048442632 -8.0947415e-05 0.016562723
00000000: a63e 2e3d 7f30 353d 35b4 953d 59b2 0f3d
00000010: 95bc 8c3d ae2f bf3d 5fa2 643d e1c7 f13c
00000020: 1d93 013d 489f 013d 2de5 033e 8343 9f3c
00000030: 4a49 8c3b c86b 463d 50c2 a9b8 8cae 873c

layer1.2.running_mean f4 [16]
1.628542 5.4312167 3.2906322 2.184183 2.048352 2.5471227 3.8376253 2.9067407
1.709636 1.7601551 6.056848 7.308344 1.364275 3.3890088 1.7228985 1.0245315
00000000: 1074 d03f 87cc ad40 b899 5240 a7c9 0b40
00000010: 3318 0340 0f04 2340 a79b 7540 0a08 3a40
00000020: 5ad5 da3f c34c e13f b3d1 c140 f4dd e940
00000030: 90a0 ae3f 85e5 5840 f087 dc3f d923 833f

layer1.2.running_var f4 [16]
47.20673 513.4726 197.16933 42.142593 46.63361 87.90694 385.6517 99.58193
48.8483 20.507288 1047.9149 1194.7874 18.607132 106.48018 24.061214 13.548816
00000000: b1d3 3c42 3f5e 0044 592b 4543 0492 2842
00000010: d188 3a42 5ad0 af42 6bd3 c043 f329 c742
00000020: a964 4342 ed0e a441 47fd 8244 3259 9544
00000030: 68db 9441 daf5 d442 5e7d c041 f3c7 5841

layer2.0.weight f4 [32, 16, 3, 3]
0.037815105 -0.0063856114 -0.019861419 -0.05551941 -0.1319638 -0.022374123 0.030148568 0.004722037
0.11118412 -0.04157263 0.012174095 -0.028371742 0.017371193 -0.07464118 -0.06844719 0.14946556
0.021451648 0.08044532 -0.08885651 -0.04035093 0.064759225 -0.052226443 -0.08827393 -0.077449605
-0.072058246 0.026330432 0.028683495 -0.056595396 -0.064858615 0.049475715 0.048773363 0.068572395
0.023369992 0.04559781 0.043014232 -0.05599745 -0.0042577195 0.031028986 0.05825125 -0.053896237
0.022806445 -0.017007584 0.0033176371 0.02144779 0.01569619 0.058701817 0.07742278 -0.07507357
-0.071445346 0.0013074966 -0.015660867 -0.04909628 -0.020575998 0.028598798 -0.040266227 -0.081196606
-0.061162822 -0.07157724 -0.09985295 -0.027123455 0.060749177 -0.021791255 0.020621026 0.04568171
0.055823952 -0.09171892 0.015282708 0.05171805 -0.010110277 -0.007627011 6.169552e-05 0.024135524
0.078446105 0.036778744 0.004332444 -0.06044846 -0.016267775 -0.033719078 -0.0026258875 -0.069198005
-0.07365314 0.017472804 0.032504477 0.01046181 0.01579612 0.110233136 -0.042374495 0.03297868
0.07325678 -0.030826503 0.009972901 0.07235131 -0.0019236534 -0.012251402 -0.104420066 -0.040527567
-0.042813826 -0.015637126 -0.043285955 0.071468264 -0.0013319106 0.021894926 -0.07222777 0.012089679
-0.042243656 0.009976493 0.09160782 -0.03500725 0.012010452 0.063130245 0.01828188 0.016266137
-0.06361781 -0.014128699 0.018437356 0.0033136217 0.02596268 -0.004938081 -0.09104371 -0.05215651
-0.0372838 0.03293953 -0.045850612 0.026781602 0.054255504 0.088562325 0.019750353 -0.02826426
0.030196305 0.0007173134 0.09396722 -0.038726784 0.06920009 -0.05464739 -0.0518568 -0.08951655
-0.02599582 0.011675571 -0.038919676 -0.06726002 -0.00038729736 -0.14797123 -0.07265914 -0.07697305
-0.02601196 -0.029384488 0.047683068 -0.012016487 -0.007421422 -0.04588282 0.028565206 0.07637616
0.051222496 0.005044175 0.036112282 -0.064621046 0.003946412 0.04681882 -0.0568522 -0.013010483
0.063462116 -0.058159754 0.023330487 -0.0060827513 -0.024082089 -0.081447385 -0.05932789 0.061973896
0.09967716 0.04873913 -0.025013093 0.060224753 0.063896015 -0.10030785 0.034442946 -0.011230764
0.004074593 0.0019396435 -0.02670972 0.08089444 -0.09128312 -0.046286877 -0.051107436 0.06710808
0.046696413 0.025546415 -0.032632574 -0.022995934 0.07290531 -0.08023244 0.016816905 -0.03586949
0.00014127126 0.010802025 -0.0016196168 -0.040937785 0.0062149167 -0.029926907 -0.034055997 0.06765162
0.02697763 -0.06537629 0.034284167 -0.062268563 0.040760476 0.02542156 -0.003854236 0.0063897762
-0.10042979 0.08563283 0.04348356 -0.03734043 0.05225431 0.06409612 -0.05404194 -0.03406715
-0.033807494 -0.07970979 0.06890555 -0.008742859 0.06495292 0.04845627 0.09125289 -0.035170205
0.07147976 -0.05614208 -0.07295644 0.063581996 -0.070815645 -0.0489527 0.044723667 -0.053826857
-0.0048153265 -0.055272713 -0.03362064 -0.03787842 0.0751819 -0.08980495 0.056117535 -0.065226726
-0.049768362 -0.017094137 0.03271975 -0.083934635 -0.06996845 0.024713386 0.036537033 0.06093117
0.03471942 -0.007676566 -0.015560323 0.009604323 -0.014600877 0.02112372 -0.036729887 -0.044069566
00000000: 03e4 1a3d 643e d1bb 6ab4 a2bc 5268 63bd
00000010: 8521 07be f049 b7bc 21fa f63c 51bb 9a3b
00000020: 80b4 e33d 1048 2abd db75 473c db6b e8bc
00000030: 084e 8e3c 7add 98bd 0a2e 8cbd 800d 193e
00000040: 5ebb af3c 84c0 a43d 67fa b5bd 0447 25bd
00000050: 7ca0 843d 65eb 55bd f6c8 b4bd e69d 9ebd
00000060: 4693 93bd ebb2 d73c a6f9 ea3c 93d0 67bd
00000070: 98d4 84bd 0ca7 4a3d 94c6 473d af6f 8c3d
00000080: 6d72 bf3c c5c4 3a3d b12f 303d 955d 65bd
00000090: 5784 8bbb 8030 fe3c dd98 6e3d 4dc2 5cbd
000000a0: 95d4 ba3c 7d53 8bbc b76c 593b 47b3 af3c
000000b0: 4c95 803c 5171 703d d68f 9e3d 2cc0 99bd
000000c0: f051 92bd 4e60 ab3a 384b 80bc 2e19 49bd
000000d0: ff8e a8bc 0748 ea3c 33ee 24bd 684a a6bd
000000e0: de85 7abd 1797 92bd b47f ccbd 0232 debc
000000f0: 21d4 783d 9383 b2bc 6ded a83c bf1c 3b3d
00000100: a8a7 643d 21d7 bbbd 5364 7a3c 4ed6 533d
00000110: 93a5 25bc 01ec f9bb 8862 8138 ddb7 c53c
00000120: 5aa8 a03d 4fa5 163d 2df7 8d3b ce98 77bd
00000130: ff43 85bc 041d 0abd 1517 2cbb afb7 8dbd
00000140: 75d7 96bd 2023 8f3c 6a23 053d 0368 2b3c
00000150: dd66 813c e9c1 e13d e190 2dbd a714 073d
00000160: a707 963d dd87 fcbc 6165 233c ec2c 943d
00000170: 1923 fcba 1bba 48bc 30da d5bd 3c00 26bd
00000180: 8d5d 2fbd 6e19 80bc 9d4c 31bd f45d 923d
00000190: 8193 aeba fd5c b33c 27ec 93bd ca13 463c
000001a0: af07 2dbd 7274 233c e19c bb3d c363 0fbd
000001b0: 7dc7 443c 6e4a 813d e2c3 953c 9040 853c
000001c0: 0e4a 82bd 0f7c 67bc f009 973c 5929 593b
000001d0: b0af d43c a0cf a1bb 2075 babd 11a2 55bd
000001e0: e6b6 18bd 9aeb 063d dacd 3bbd 1765 db3c
000001f0: 053b 5e3d 2a60 b53d 7ecb a13c 738a e7bc
00000200: 3e5e f73c 160a 3c3a e371 c03d fa9f 1ebd
00000210: c7b8 8d3d f1d5 5fbd cc67 54bd 7454 b7bd
00000220: 30f5 d4bc e54a 3f3c 3d6a 1fbd 9fbf 89bd
00000230: 2c0e cbb9 c585 17be 51ce 94bd 0ca4 9dbd
00000240: 0917 d5bc bdb7 f0bc 524f 433d cde0 44bc
00000250: 662f f3bb a0ef 3bbd 9401 ea3c 1b6b 9c3d
00000260: aece 513d 9b49 a53b 79ea 133d 0a58 84bd
00000270: e750 813b 17c5 3f3d dadd 68bd ec29 55bc
00000280: 6df8 813d ec38 6ebd 941f bf3c d151 c7bb
00000290: cd47 c5bc e3cd a6bd cd01 73bd 57d8 7d3d
000002a0: 8a23 cc3d afa2 473d 42e8 ccbc 3bae 763d
000002b0: eadb 823d 346e cdbd 0c14 0d3d 3d01 38bc
000002c0: 2a84 853b a33b fe3a 58ce dabc fcab a53d
000002d0: a5f2 babd 4f97 3dbd 0856 51bd f66f 893d
000002e0: bd44 3f3d b746 d13c bca9 05bd f861 bcbc
000002f0: 614f 953d e850 a4bd 9bc3 893c e3eb 12bd
00000300: 3722 1439 fafa 303c 5249 d4ba 61ae 27bd
00000310: 80a6 cb3b 4629 f5bc 4d7e 0bbd ef8c 8a3d
00000320: 3100 dd3c 01e4 85bd 8e6d 0c3d 520d 7fbd
00000330: 75f4 263d e040 d03c 5a97 7cbb 5461 d13b
00000340: 22ae cdbd 4460 af3d d11b 323d 47f2 18bd
00000350: 9e08 563d d444 833d 155b 5dbd ff89 0bbd
00000360: ba79 0abd e33e a3bd 5a1e 8d3d 353e 0fbc
00000370: 0906 853d 157a 463d cce2 ba3d a20e 10bd
00000380: fb63 923d 3df5 65bd 306a 95bd 4737 823d
00000390: cb07 91bd a082 48bd 2a30 373d 8d79 5cbd
000003a0: e3c9 9dbb a465 62bd ccb5 09bd 6726 1bbd
000003b0: f8f8 993d a8eb b7bd 80db 653d 9795 85bd
000003c0: e9d9 4bbd 0109 8cbc 2505 063d ece5 abbd
000003d0: 9e4b 8fbd ba73 ca3c dba7 153d f692 793d
000003e0: f335 0e3d b48b fbbb baf0 7ebc 735b 1d3c
000003f0: 8438 6fbc a70b ad3c 1472 16bd 4a82 34bd

layer2.0.bias f4 [32]
-0.05950655 -0.082588784 0.02132044 -0.035398256 -0.0051205982 0.08499913 -0.09381006 0.0064163716
0.058864344 -0.013240386 -0.0241155 -0.010664053 -0.09049706 -0.088142455 -0.08194303 0.041593544
0.002870634 -0.120859474 0.02218674 0.013452964 0.003818855 -0.046469577 -0.034276318 -0.024330731
0.016043367 -0.033846743 0.01954787 -0.13038085 -0.10222204 -0.10629595 0.0007885045 -0.020055119
00000000: 24bd 73bd 4f24 a9bd 34a8 ae3c c3fd 10bd
00000010: b1ca a7bb 0614 ae3d 7d1f c0bd 6d40 d23b
00000020: bd1b 713d 34ee 58bc de8d c5bc 48b8 2ebc
00000030: 8656 b9bd 0884 b4bd bfd1 a7bd fe5d 2a3d
00000040: 3f21 3c3b 2c85 f7bd f7c0 b53c d269 5c3c
00000050: c145 7a3b e256 3ebd 5365 0cbd 3e51 c7bc
00000060: 616d 833c e2a2 0abd db22 a03c 8f82 05be
00000070: ca59 d1bd b1b1 d9bd a4b3 4e3a a24a a4bc

layer2.2.weight f4 [32]
1.0283195 0.9616873 0.97631496 0.98402125 1.0335792 0.9865576 0.98854095 0.99700266
0.983217 1.0399832 0.99435806 0.9776553 1.0275635 1.006117 1.0008996 0.9886169
1.0231868 0.9841108 1.0232422 0.9894359 0.98037195 1.0076529 1.0005541 0.9810161
0.97120833 0.98883355 1.0279583 1.0423511 0.9844187 1.0629191 1.0102086 1.026076
00000000: f99f 833f 2431 763f c7ef 793f d1e8 7b3f
00000010: 534c 843f 0a8f 7c3f 0511 7d3f 913b 7f3f
00000020: 1cb4 7b3f 2b1e 853f 408e 7e3f 9e47 7a3f
00000030: 3387 833f 71c8 803f 7a1d 803f ff15 7d3f
00000040: c9f7 823f afee 7b3f 9af9 823f ac4b 7d3f
00000050: a8f9 7a3f c5fa 803f 2812 803f df23 7b3f
00000060: 1ca1 783f 3224 7d3f 2394 833f c36b 853f
00000070: dd02 7c3f bc0d 883f 844e 813f 7556 833f

layer2.2.bias f4 [32]
-0.06711246 -0.043705303 -0.047121678 -0.07379077 -0.081013925 -0.02929626 -0.03702513 -0.022745296
-0.05232103 -0.052487858 -0.045330167 -0.068004675 -0.047622535 -0.02575331 -0.07400406 -0.057080474
-0.0544296 -0.019672833 -0.053702455 -0.025936613 -0.02588104 -0.042538762 -0.08034837 -0.043775592
-0.032354973 -0.015953572 -0.04452214 -0.06652224 -0.0407604 -0.0701821 -0.04175508 -0.07588258
00000000: 4272 89bd 5504 33bd a902 41bd 9d1f 97bd
00000010: a1ea a5bd b6fe efbc aaa7 17bd 5854 babc
00000020: 944e 56bd 82fd 56bd 20ac 39bd 0946 8bbd
00000030: d90f 43bd 9bf8 d2bc 718f 97bd 37cd 69bd
00000040: 92f1 5ebd ec28 a1bc 1bf7 5bbd 0579 d4bc
00000050: 7a04 d4bc 203d 2ebd b08d a4bd 094e 33bd
00000060: a686 04bd 11b1 82bc d95c 36bd d03c 88bd
00000070: 61f4 26bd a2bb 8fbd 6007 2bbd 5368 9bbd

layer2.2.running_mean f4 [32]
0.07209558 0.013779539 0.15272966 0.060612958 0.11990648 0.12552895 0.034804348 0.07181478
0.17651078 0.06648493 0.059475027 0.07246735 0.05920055 0.061979372 0.103746146 0.10910178
0.059368566 0.010792276 0.05497065 0.08419069 0.13792326 0.075967506 0.064650364 0.10843428
0.10582539 0.0932784 0.07881434 0.03483038 0.02174035 0.0506814 0.10482238 0.071768194
00000000: d9a6 933d 93c3 613c 2a65 1c3e 4b45 783d
00000010: 8791 f53d a98a 003e 018f 0e3d a113 933d
00000020: 3ebf 343e 4029 883d 169c 733d c369 943d
00000030: 477c 723d 15de 7d3d dc78 d43d c170 df3d
00000040: 742c 733d 16d2 303c e728 613d 2b6c ac3d
00000050: c13b 0d3e da94 9b3d 6967 843d cb12 de3d
00000060: fbba d83d bf08 bf3d 6a69 a13d 4daa 0e3d
00000070: d218 b23c 4d97 4f3d 1ead d63d 34fb 923d

layer2.2.running_var f4 [32]
0.04777068 0.0033152844 0.10483045 0.025588153 0.03320281 0.10168859 0.02222219 0.042220317
0.09158336 0.041358978 0.04363866 0.014119427 0.030755341 0.058817927 0.07521838 0.053405177
0.025849642 0.006746325 0.02227802 0.042590685 0.13318174 0.05965764 0.021554872 0.027171485
0.029801225 0.059651278 0.019911097 0.013584484 0.009862507 0.023854433 0.04163261 0.02471124
00000000: 30ab 433d 3e45 593b 59b1 d63d 3f9e d13c
00000010: abff 073d 1c42 d03d 4f0b b63c 36ef 2c3d
00000020: 0f90 bb3d 0868 293d 74be 323d 2b55 673c
00000030: a0f2 fb3c 11eb 703d 180c 9a3d 63bf 5a3d
00000040: a1c2 d33c 4710 dd3b 6580 b63c 9273 2e3d
00000050: cb60 083e 925b 743d d893 b03c bc96 de3c
00000060: b321 f43c e654 743d 991c a33c 7591 5e3c
00000070: 5a96 213c 5f6a c33c f586 2a3d 3a6f ca3c

fc.weight f4 [5, 3200]
0.0060632043 -0.01314629 0.0032851582 0.007851684 0.0047123763 -0.009269804 -0.0029373155 -0.0028816045
0.005305782 -0.012765655 -0.006868751 0.0023863532 0.01994908 0.00030856297 0.003737864 0.024647418
0.013798417 -0.017589126 0.01715883 -0.011295647 -0.01855415 -0.004735075 0.00060672424 0.023888037
0.011742721 0.011483102 -0.0010325186 -0.024283875 -0.06095819 0.0124817155 0.009916332 0.026719835
0.03052067 -0.008396072 -0.0046710116 -0.022796446 -0.028798137 0.0008774124 -0.0030513196 0.009146263
-0.0008722411 0.0051155407 0.018126963 -0.027056873 -0.024985973 -0.025769217 -0.02851475 -0.037441462
-0.0023948934 0.004692558 -0.0021068947 0.04276514 0.029099343 0.047566358 0.055411592 0.027031405
0.012910352 -0.04317234 -0.024355885 0.017182495 0.0015169006 0.00507089 -0.028163658 -0.05570187
-0.043991618 -0.012885993 0.004628593 -0.005704005 0.015629416 0.002802331 -0.007840158 -0.031815637
0.030517777 -0.010680549 -0.003300085 0.006192798 0.021993643 0.015896413 0.013007201 0.0036683816
-0.0101428935 -0.027762173 -0.029820938 0.016904427 0.0018957774 0.011299721 0.04040885 0.0434283
-0.0034015058 -0.0011237002 -0.025605531 -0.016140556 0.007799682 0.00791265 0.023272889 0.033533983
0.027721817 0.025741091 0.0115884645 -0.0028392563 0.011427881 -0.004635061 -0.009524467 0.0041223606
-0.03152711 -0.021732379 -0.0010721324 -0.021196723 0.0063382923 0.0044255867 -0.013003756 0.000590611
0.015285808 0.008520065 -0.03692141 0.020563269 0.017077813 -0.01588217 0.0087647205 0.009053155
-0.0066935 0.010357287 0.013074878 -0.017338576 0.0051410324 -0.024765564 -0.0089739 0.025334468
-0.013054982 0.006269478 0.01836856 0.006688571 0.024234293 -0.0053241863 -0.012949122 0.036828663
-0.015939692 0.00719748 -0.008399667 -0.013514599 0.007572846 -0.0073321457 0.012081744 -0.005984262
0.0032996556 0.013601515 0.001667041 0.00037317685 0.00072841364 0.004516613 0.0014196042 -0.018726353
0.02306909 0.0060832053 -0.017133247 -0.032801192 0.0151004065 0.0024650414 -0.008753978 0.008022551
-0.014708597 -0.013445169 0.0029449032 0.019614585 -0.004226373 0.009190909 -0.0014156253 -0.0027929984
-0.0060456996 -0.0153524475 -0.036114402 0.006105318 0.006649755 0.0049744295 0.0023334876 -0.016319051
0.00092776265 0.008721306 -0.012271798 0.009824175 -0.003177739 -0.01463218 -0.016285034 0.0016213977
-0.01287215 -0.009618265 0.01904465 0.013381707 -0.0037433764 0.007378396 0.03567511 -0.009115315
-0.027964478 -0.0010808995 -0.019218659 0.010281111 0.019552741 0.02194778 0.029656813 0.0015016675
-0.008892454 -0.0010057172 0.007713175 0.0077610253 0.0032914623 0.0025116808 0.004249074 9.214971e-05
0.0070732837 0.022077031 0.0152628785 -0.007524208 0.0026061207 0.0061403867 0.0021312498 0.003958611
0.003888488 0.0039387983 0.0117712775 0.008210024 -0.012541493 -0.010366482 -0.0014009895 0.019044394
0.010496438 0.023218662 0.021406708 -0.03097029 -0.0013650232 -0.0067852843 -0.015945828 0.015845248
0.004488124 0.00078077277 -0.008674874 -0.009459568 -0.020009756 0.016057644 -0.0037536197 0.011775759
0.017493632 0.011017546 -0.0070113973 0.004981112 0.015063369 -0.048751447 -0.013448773 -0.057762615
-0.014530967 -0.006604181 0.012410429 0.03121338 0.0032175516 -0.000600474 0.045552503 -0.012089167
00000000: d8ad c63b 8963 57bc cf4b 573b 59a4 003c
00000010: 476a 9a3b 60e0 17bc fa7f 40bb 4dd9 3cbb
00000020: 20dc ad3b 0a27 51bc 4213 e1bb 5d64 1c3b
00000030: 416c a33c 9fc6 a139 f4f6 743b 62e9 c93c
00000040: c112 623c 1217 90bc ad90 8c3c 6111 39bc
00000050: dffe 97bc b028 9bbb 930c 1f3a d8b0 c33c
00000060: 8b64 403c 9f23 3c3c 9355 87ba faee c6bc
00000070: 4caf 79bd 1c80 4c3c 1c78 223c 8ee3 da3c
00000080: 7c06 fa3c ae8f 09bc 490f 99bb 9dbf babc
00000090: 12ea ebbc 2602 663a a6f8 47bb 35da 153c
000000a0: 1ca7 64ba 44a0 a73b ff7e 943c 60a6 ddbc
000000b0: 62af ccbc f719 d3bc c497 e9bc 385c 19bd
000000c0: a5f3 1cbb 08c4 993b d413 0abb 802a 2f3d
000000d0: bf61 ee3c f1d4 423d 44f7 623d f770 dd3c
000000e0: f185 533c 7bd5 30bd fe85 c7bc 4ec2 8c3c
000000f0: bdd2 c63a b529 a63b 79b7 e6bc a527 64bd
00000100: 8e30 34bd c61f 53bc 74ab 973b a9e8 babb
00000110: 4309 803c 50a7 373b 0274 00bc 1d51 02bd
00000120: 6b00 fa3c 78fd 2ebc 3d46 58bb f4ec ca3b
00000130: 032c b43c 3239 823c 281c 553c 3b69 703b
00000140: 612e 26bc 7f6d e3bc 0a4b f4bc 277b 8a3c
00000150: bc7b f83a 7722 393c c083 253d e0e1 313d
00000160: cceb 5ebb 1f49 93ba b1c2 d1bc 3339 84bc
00000170: 7a94 ff3b 0fa4 013c c9a6 be3c ee5a 093d
00000180: dd18 e33c fbde d23c 8bdd 3d3c d112 3abb
00000190: 023c 3b3c b6e1 97bb 830c 1cbc de14 873b
000001a0: 9222 01bd 1a08 b2bc cb86 8cba c0a4 adbc
000001b0: 73b1 cf3b 8304 913b b50d 55bc 3cd3 1a3a
000001c0: 5371 7a3c be97 0b3c e83a 17bd 4d74 a83c
000001d0: c5e6 8b3c 531b 82bc e799 0f3c af53 143c
000001e0: 2655 dbbb 9cb1 293c 0338 563c a109 8ebc
000001f0: 1b76 a83b 27e1 cabc 4407 13bc 3b8a cf3c
00000200: 90e4 55bc 3170 cd3b aa79 963c cd2b db3b
00000210: ff86 c63c 8376 aebb 8e28 54bc a7d9 163d
00000220: f593 82bc d7d8 eb3b c29e 09bc 566c 5dbc
00000230: a325 f83b 7f42 f0bb 82f2 453c a117 c4bb
00000240: 093f 583b e4d8 5e3c 9d80 da3a f3a6 c339
00000250: 03f3 3e3a 1900 943b 0312 ba3a 0268 99bc
00000260: 63fb bc3c a055 c73b 065b 8cbc 8b5a 06bd
00000270: b267 773c 888c 213b d86c 0fbc 0571 033c
00000280: 54fc 70bc 2049 5cbc 47ff 403b c4ae a03c
00000290: 637d 8abb 7795 163c 818c b9ba bd0a 37bb
000002a0: 011b c6bb d588 7bbc b2ec 13bd 1f0f c83b
000002b0: 30e6 d93b 8a00 a33b 6ded 183b 88af 85bc
000002c0: 1935 733a cfe3 0e3c a70f 49bc 94f5 203c
000002d0: 9d41 50bb d0bb 6fbc 3168 85bc 1485 d43a
000002e0: b6e5 52bc ed95 1dbc 8703 9c3c f23e 5b3c
000002f0: 6f53 75bb 79c6 f13b 1020 123d 6758 15bc
00000300: c315 e5bc f8ac 8dba 7370 9dbc 1b72 283c
00000310: 122d a03c d5cb b33c d8f2 f23c 9ad3 c43a
00000320: a8b1 11bc 45d2 83ba cdbe fc3b 3350 fe3b
00000330: 93b5 573b 039b 243b d13b 8b3b 8040 c138
00000340: 01c7 e73b e4da b43c 2711 7a3c a28d f6bb
00000350: 73cb 2a3b 4c35 c93b 70ac 0b3b 3cb7 813b
00000360: 01d6 7e3b 0911 813b 51dc 403c 5683 063c
00000370: d67a 4dbc 2dd8 29bc 68a1 b7ba fd02 9c3c
00000380: 40f9 2b3c 1035 be3c 1f5d af3c 68b5 fdbc
00000390: 94ea b2ba 1757 debb d3a0 82bc e5cd 813c
000003a0: 1d11 933b c6ac 4c3a 0f21 0ebc 4efc 1abc
000003b0: 80eb a3bc 528b 833c 4aff 75bb 1def 403c
000003c0: ce4e 8f3c f082 343c ddbf e5bb 9938 a33b
000003d0: 59cc 763c 99af 47bd 3e58 5cbc 7e98 6cbd
000003e0: 4b13 6ebc e367 d8bb 1d55 4b3c 34b3 ff3c
000003f0: 8fdd 523b 2169 1dba 4395 3a3d a411 46bc

fc.bias f4 [5]
-0.017084785 -0.018166281 0.005856672 -0.003980735 0.023394324
00000000: 64f5 8bbc 74d1 94bc 53e9 bf3b d370 82bb
00000010: 74a5 bf3c
